src/main/resources/models/bitb_phishing_detector.onnx (onnx, 1511 bytes, 3 tensors)

coefficient f4 [3, 8]
000000 e1 d3 2e bf c2 6f 8a 3f 33 aa 41 3f cc 05 1e 3f
       -0.6829205 1.0815356 0.7565033 0.61727595
000010 c4 ac 80 bf 23 85 4f bf 62 a9 da be 41 25 19 3f
       -1.0052724 -0.81062526 -0.42707354 0.5982247
000020 8f 25 a8 bd cd 68 72 3f 7c 6e 7b bf 4a 7a 99 3f
       -0.08210289 0.94691163 -0.9821546 1.1990445
000030 d4 a3 b2 3e 7d a7 f4 be a0 27 b9 be 83 f5 28 bf
       0.34890616 -0.47784033 -0.36163044 -0.6599962
000040 91 01 8e be d2 f9 7b be 7c ab 9f be d6 11 09 3d
       -0.2773557 -0.24607018 -0.3118552 0.033464275
000050 f3 f4 37 3f 7e 96 8a bf 72 12 3e be f6 bd ae bf
       0.7185814 -1.0827177 -0.18561724 -1.3651721

intercepts f4 [1, 8]
000000 1c 33 bd 3e 6e 20 49 3f b2 b8 7a be 34 34 3b 3f
       0.36953056 0.7856511 -0.24484518 0.7312653
000010 b2 e8 fa 3e 45 28 b3 be d2 32 d3 bd bb 42 0b bf
       0.49005657 -0.3499166 -0.103124276 -0.543987

coefficient1 f4 [8, 1]
000000 eb 9a a6 bf d3 25 9f 3f e2 0b ae 3f e0 5f 97 3f
       -1.3016027 1.2433418 1.3597376 1.1826134
000010 43 be 87 bf 0c b9 94 bf cb 28 af 3d 18 56 94 bf
       -1.0604938 -1.1618972 0.085527025 -1.1588774
