src/main/resources/models/bitb_phishing_detector.onnx (onnx, 4825 bytes, 6 tensors)

network.0.weight f4 [32, 11]
00000000: 8d52 873d 3fe0 3e3d bcc6 103e 3aef 823e
00000010: f20b c8bd caad b03d b06e a8be f174 3b3e
00000020: 66cc e73d 6eda 433e a4e0 93be a297 6abe
00000030: ff49 d3bd e38a 80be 7806 353e ecc2 09be
00000040: 2bbb 8dbe c6b7 eb3d 881c 773e 2e92 943e
00000050: 650a 8b3d 197c e33d 4542 423d 8628 edbd
00000060: 26b0 993e 99aa 22be 8b26 2fbb 9e1a 3cbd
00000070: 9cb9 813d 4f1b 08be 38ad bc3e 8638 bf3d
00000080: 4d7b 96be 3160 493e a891 29be 3d05 213d
00000090: 3d2a 7b3d fc03 d0bd 81e8 513d aa5d 1abe
000000a0: b271 97bd e83b 2ebe 51c5 743e acfd 903e
000000b0: 9ed5 1d3c 51bc 583c 016a 073e c965 0f3e
000000c0: 0936 bf3e 133d ffbd 587b 853e e59f 6f3e
000000d0: 96f9 053e 0fd7 8abe 40ed 173b 6884 58be
000000e0: ca8a 223e d6f0 083e b182 2abe b731 80be
000000f0: 3e65 c3bd 1c06 8dbe 72c8 63bd 077b 283e
00000100: 4c3b 673e fef8 77be 97d5 64be 16be 3abe
00000110: c688 bebc b25a 71be 0d1a 253d 67fd 4e3e
00000120: df2d e73d 987e 54be 5640 273e c346 8cbe
00000130: 719a a73d cbd9 433e 0d48 78be cb25 98be
00000140: 9c28 22be bf43 23be 3d63 0bbe 38d9 123e
00000150: 8c47 24be 7022 91be 4b66 2ebd 6a79 5fbe
00000160: 85ff ef3a 4ce8 703e 1fb6 22be 1666 4cbe
00000170: 6382 443e ec3f 2cbe 6d5d 70be 8f30 08be
00000180: cbac 77be b299 783e 957c 9e3d 5a8a 59be
00000190: 6307 94be 33bb a7bd fb59 5b3e 6d78 3e3d
000001a0: 886d 533e 627e 593e cf2d cdbd b031 8c3d
000001b0: 3852 d3bd 44df 96be eb97 713e d301 1e3e
000001c0: a42a 5fbe 6402 31be 5e06 4dbe a057 87be
000001d0: dfb8 f3bc b50d 2a3e b5d0 8cbe 28e4 fb3c
000001e0: 034b 293e 816c 98be 6280 8bbe 298a 363e
000001f0: bc15 47be ef93 7b3e d614 c5bd aeb9 d33c
00000200: 3472 693e 8139 24be 5a21 39be 20d9 0abe
00000210: 86d1 883d 7d54 47bb cb82 873e 74ca 8fbd
00000220: 3d7c 3bbe 2011 87be f66f 5e3e b7f8 8fbb
00000230: a4f4 233e c9e3 f5bd b7c3 29be 6681 a73d
00000240: 8003 13be c8f0 b4be 4407 e93b 26ac d7bd
00000250: 0111 b73e e611 813e 2785 0d3e 10cd 9ebe
00000260: fa26 643d eee0 cb3d 3802 c63e af32 7dbe
00000270: c47b ff3d 71a7 2a3d b47e 06be 4a4f 92be
00000280: e1ad 5abe b37f 0dbe 97c5 5d3d 792b 543d
00000290: 41ba 96be 367e 42be e5c3 293e 26b3 693e
000002a0: 9cab 133e e065 50be 6a61 17be 9268 7f3e
000002b0: e4b0 873e c531 bb3d 6e44 3abe ecc5 473e
000002c0: e69e 0bbe 2f0f ac3e cf2e 293e 4e5f 08be
000002d0: 06e4 50be f8bd c8bd 37fd 923e 6c7a d4bd
000002e0: 6def 6bbd 8249 be3e 1d58 77be 7e95 8abd
000002f0: d74e 32be 5a41 473d e9b4 91be 573e 73be
00000300: 55a9 c13e adec 6b3e a377 0c3e 2126 62bc
00000310: 273c ba3e ed32 923d be09 cd3e 3dd9 6a3e
00000320: bed0 963e ae30 78bd 310d d23d 1df3 03be
00000330: 4c94 ef3d 370c 41bd 7f33 ad3e 04a7 213e
00000340: ee50 8d3e 1b63 ce3e 5175 863e 0065 2f3e
00000350: 4827 7f3e 274f 09be 9391 26be 82df ef3d
00000360: 1e09 03be cb04 21be 0890 0ebd 8c3d 813e
00000370: cb8d c8ba a401 893c 255e 083e 9058 a33e
00000380: 1518 54bd 8eed 82be 2e89 c4be 1c68 b4bc
00000390: c55c 6fbe 80df b6bd f86a 4cbe e0ee 69bd
000003a0: 9f3c e63d 52f5 c5bd 3b0f 7e3e 317d c2be
000003b0: 44b7 443e 2a5d a9be c750 06be 206d 893e
000003c0: 8b14 21bc 44cd 043e 9802 38bd 37d3 fc3d
000003d0: 2838 4ebb 35d4 8abe 214b 7d3d 9fda 373e
000003e0: 0a00 363e cd4d 8b3e fac4 5bbd 2874 223e
000003f0: e4a0 263e 2481 8e3e 4f85 83bc 87b6 b93e
0.06607542 0.046600576 0.14138311 0.2557314 -0.097679034 0.08626898 -0.32896948 0.18306328
0.11318283 0.19126293 -0.28882325 -0.22909406 -0.10316848 -0.25105962 0.17678249 -0.13453263
-0.2768186 0.115096614 0.24131978 0.29017776 0.06789092 0.11107654 0.04742648 -0.11579995
0.30017203 -0.1588539 -0.0026725854 -0.04592382 0.0633423 -0.13291667 0.36850905 0.09336953
-0.29390946 0.196656 -0.1655947 0.039311636 0.06131958 -0.1015701 0.051247124 -0.15074793
-0.073947325 -0.1701504 0.23903395 0.28318536 0.00963345 0.013228492 0.13224031 0.14003672
0.37345913 -0.12462821 0.26070666 0.23400839 0.1308349 -0.27117202 0.0023182184 -0.21144259
0.15873256 0.13373122 -0.16651417 -0.2503793 -0.09540795 -0.27543724 -0.05561108 0.16453181
0.22581214 -0.24216077 -0.22347103 -0.18236575 -0.023258578 -0.23569754 0.040308047 0.20213853
0.11288046 -0.20751417 0.16333136 -0.27397737 0.08183754 0.1912605 -0.24246235 -0.29716334
-0.15835804 -0.15943812 -0.13612075 0.14340675 -0.16042918 -0.28346586 -0.042578023 -0.2182366
0.0018310404 0.23526114 -0.15889786 -0.19960818 0.19190364 -0.1682126 -0.23473139 -0.13299774
-0.24187009 0.2427738 0.07738606 -0.21244183 -0.28911886 -0.08190002 0.21421044 0.046501566
0.20647252 0.21239617 -0.10018503 0.06845415 -0.10318416 -0.29467213 0.23593108 0.15430383
-0.2179361 -0.17286068 -0.2002196 -0.2643404 -0.02975124 0.16606791 -0.2750298 0.030748442
0.16532521 -0.29770282 -0.27246386 0.17826141 -0.19441885 0.24568151 -0.09623115 0.025845375
0.22797471 -0.16037561 -0.18079129 -0.13559389 0.066805884 -0.003041535 0.26466975 -0.07021037
-0.18309112 -0.26380253 0.21722397 -0.004393663 0.16011292 -0.12006337 -0.16578566 0.08178978
-0.14356804 -0.35339952 0.007111462 -0.105308816 0.3575516 0.25208968 0.13820325 -0.31015825
0.055701233 0.09955011 0.38673568 -0.24726366 0.12474778 0.04166359 -0.13134271 -0.28576118
-0.21355392 -0.13818245 0.054143514 0.05179927 -0.29438975 -0.18993458 0.16578634 0.22822246
0.14420933 -0.20351362 -0.14783254 0.24942234 0.26502144 0.09140352 -0.18190166 0.19509095
-0.13634834 0.33605334 0.16521762 -0.13317606 -0.20399484 -0.09801859 0.28708813 -0.103749126
-0.05760138 0.37165457 -0.24154706 -0.067667946 -0.17412888 0.04864631 -0.28458336 -0.2375425
0.37824503 0.23039503 0.13717513 -0.013803036 0.36374018 0.071386196 0.40046495 0.22934432
0.29456133 -0.0605933 0.10256422 -0.12885709 0.11698207 -0.04713079 0.3382835 0.15786368
0.27600807 0.40309986 0.2626138 0.17128372 0.24917328 -0.134091 -0.1626647 0.117125526
-0.12796447 -0.15724485 -0.034805328 0.2524227 -0.0015301047 0.016724415 0.13317163 0.31903505
-0.05178078 -0.25571865 -0.3838591 -0.0220223 -0.23375233 -0.08929348 -0.1996268 -0.057112575
0.11242031 -0.09665932 0.24810497 -0.37986138 0.19210535 -0.3307889 -0.13116752 0.26841068
-0.009831558 0.12968928 -0.04492435 0.123449735 -0.0031466577 -0.27115026 0.061839227 0.17954491
0.17773452 0.27207795 -0.05365465 0.15864623 0.16272312 0.278329 -0.016054777 0.3627207

network.0.bias f4 [32]
00000000: 1160 913e 7306 dfbd cf83 f53d 4bc7 2fbd
00000010: e926 ccbd a53f 97be 79f2 8dbe 72d3 733d
00000020: 45f8 a5be e419 2abd d579 80bd e8cd 8ebd
00000030: c51d 5a3d 0ad4 13bd a7e0 3d3e 1974 d13d
00000040: ba25 a53e b9d1 4d3e ffb2 ff3d 006c b13e
00000050: 65de 723e e6e5 55be 9653 ca3a 9f60 6f3d
00000060: 5c83 89be 9411 86be 6d87 cf3e 6977 323e
00000070: 1b3f b63e 58c2 093e bf84 b93e dafe 593e
0.28393605 -0.10889902 0.11988031 -0.04291467 -0.09968359 -0.29540744 -0.27724054 0.05952782
-0.32415977 -0.041528597 -0.062732376 -0.06972867 0.053251047 -0.036090888 0.1854273 0.10227222
0.32255346 0.20099534 0.12485313 0.3465271 0.2371765 -0.2088848 0.0015436288 0.058441754
-0.26858032 -0.26185286 0.4053301 0.17428364 0.3559502 0.13453043 0.3623409 0.21288624

network.3.weight f4 [16, 32]
00000000: 708b 81bc b321 77be cd1b 80be 2611 3bbe
00000010: 1ac0 7e3e c88b 26be 50ef 15be 9b49 c6bc
00000020: 2b99 1abe ac27 e5bd 6b88 483d 6134 5bbd
00000030: 3e80 02be f3bb bf3d 5403 2c3e 7784 2d3e
00000040: 1a2d 60be 0457 57be 2e90 2b3e 6267 d53b
00000050: 4eab d63c 5625 8abc 704c 2f3e 5289 f13c
00000060: 1c67 20bd 275b d4bd ff11 4bbd 780c afbd
00000070: 7b3e 293e a6f7 3ebe 21ca 55be eb6f 443e
00000080: c5cc 1c3c 1669 6d3d f180 103e 479b 99bd
00000090: b0f9 b9bc ce2c aa3d 80a4 c03d a5d1 233e
000000a0: 0cc2 7d3d cf77 563d cbcb 8abd 851f 05bd
000000b0: a121 1dbd 9e1f b43d f4c4 c8bc d46b e33d
000000c0: 9b6c 4e3e 4fb6 203e b007 60bd 0562 59bd
000000d0: cb19 a1bd 1468 d43d e1f8 f23c 959a 3b3e
000000e0: 42bc 753c 829a f93d b47b abbd a447 e3bd
000000f0: a812 6bbc 331d ff3d 58ee 053e 85fd d1bd
00000100: c61e 323e 63d0 833e fe90 363e ff46 a03e
00000110: 002f 65be bf51 213e 8999 413d 5589 b5bd
00000120: d85a 52bd c365 1e3b 272e 76bd a7dc 10be
00000130: 30b8 01bd 5292 703e c46e 853d 61a5 9dbd
00000140: f9b1 4a3d 2a01 0bbb bf42 93bd 3081 fdbc
00000150: 473f c6bd c599 f03d dbdd d63d 39a5 79bd
00000160: 1775 0e3d f889 13be 6b83 133e 30a3 e53d
00000170: c676 443e d6ba 1c3e 6fac de3c ce5f a43d
00000180: 61bf 60bd 4dd1 c3bd cf74 48bc 192f 1bbd
00000190: 4285 413d 4574 81bd 6d3c a63d b8c5 b2bc
000001a0: 69cc be3c a172 e3bd a92c d43b 91a8 d53d
000001b0: 6f67 19be c88d 11be 5a59 15be 8025 4cbd
000001c0: 45ff f93c 95e2 e33d b497 ffbd bef5 743c
000001d0: a922 ccbc 862c 24be 3582 27be 0bd4 793d
000001e0: c759 09be f3d5 0dbe acb9 ab3d 1fc4 f9bd
000001f0: 5e5b 6dbc 51b5 0d3e 4172 14be 1fd2 e3bd
00000200: a379 4cbd e19a 6f3e 40f1 b43d 3f12 fa3d
00000210: 9fdd 393d 9842 acbd 520f 2bbd 1af4 1ebe
00000220: 1d84 cfbd b502 823e a57b 8bbd 2489 0e3d
00000230: 2bcb 223d a523 41bd c2ca a83d b0fb 23bc
00000240: 9e2a b4bd 7521 9d3d e05d 3a3e a868 273e
00000250: 5f02 46bc ddc9 8c3e 8831 113d 6721 8c3e
00000260: 1360 c8bd c985 d5bd 0df4 e13d 9e9a b8bd
00000270: c7b6 af3d e3c3 173e a8f3 acbd 3240 15bd
00000280: 1efa c6bd ab8d 053e 84ef 493e 9af8 573e
00000290: 7266 373d d486 153e 30bb 04be 3140 d9bd
000002a0: 923c 00ba 316f 093d a7d3 62be 0808 aabd
000002b0: 566f 1a3e 04b3 443e 6903 05be 3ef9 843e
000002c0: cb39 6e3e a833 b53c 821a 1a3d 3d0f 243e
000002d0: a68e 5bbe 76ba 94bd 5a9d 0abd 47c1 b3bc
000002e0: 5878 0a3e a1bc 6e3d 3089 07be f313 833d
000002f0: 8538 8ebd 3182 823e 848f 733c 1379 923d
00000300: 57e6 163e 51c8 423d d072 283d cf6f 4bbd
00000310: 2171 9cbd 2580 293e fd6d 13be 88ac 193e
00000320: b050 1bbe 50de 21bc 25ec 1a3e 755c 29be
00000330: 98dc a8bd 1de9 3abe 3c61 d5bb 4468 7c3d
00000340: 7cbb 45be f234 dabd 5cb1 193e 58d9 063e
00000350: ee13 413e e510 e9bd 37fd 2fbe b0c0 b53d
00000360: 1e18 eebd 8f67 a23d cc91 59be 34ff 28bd
00000370: db10 de3d 7a3f 083e 0a2d 13bd 4fde 953d
00000380: 36ba 383e f645 a23e 4e66 143e e0b2 e73d
00000390: 3ed1 2ebe c99c c03d 8a2c 2e3e 8667 2bbe
000003a0: fb55 d4bd 6778 14be 50b5 05be 45c2 92bd
000003b0: bccd d9bd 3610 7f3e d409 e6bd 57ce 0cbe
000003c0: 13a4 793e 7522 483e 7c1a 9ebb babf 613d
000003d0: fd14 4bbd 6e62 cf3d 9879 153e f800 4ebe
000003e0: 9ec3 a2bd cb43 05be 7d27 ec3d 711c 4e3e
000003f0: 41cf 053e d122 743e 1e53 973e f139 ec3d
-0.01581356 -0.24133949 -0.2502121 -0.1826826 0.24877968 -0.1626426 -0.14642072 -0.02420502
-0.15097491 -0.111892074 0.048958223 -0.05351675 -0.12744233 0.0936202 0.16798145 0.16945063
-0.21892205 -0.21029288 0.16754219 0.0065125683 0.026204731 -0.016863506 0.17119002 0.029484425
-0.039160833 -0.103689484 -0.04957771 -0.085473 0.1652774 -0.18649158 -0.20877887 0.19183318
0.009570305 0.057961546 0.14111687 -0.0750032 -0.022702068 0.08309327 0.09406376 0.15997942
0.061952636 0.052360352 -0.06777152 -0.032500762 -0.03836215 0.08795093 -0.024507977 0.11104551
0.20158617 0.15694545 -0.05469483 -0.053071994 -0.07866248 0.10371414 0.02965969 0.18320687
0.014998497 0.12187673 -0.08373204 -0.11097649 -0.01434771 0.12456741 0.13079202 -0.10253433
0.17394552 0.25744924 0.17828748 0.31304166 -0.2238121 0.1575384 0.047265563 -0.08864085
-0.051356167 0.0024169541 -0.060102608 -0.14146672 -0.031669796 0.23493317 0.065152675 -0.07697559
0.049486134 -0.002121041 -0.07190465 -0.03094539 -0.09680038 0.11748079 0.10491534 -0.060948584
0.034779634 -0.144081 0.144056 0.11212766 0.19185933 0.15305647 0.027181832 0.08026086
-0.054870013 -0.09561405 -0.012234881 -0.037886713 0.047246225 -0.06321005 0.08116994 -0.021822795
0.02329083 -0.11105848 0.0064750505 0.10432542 -0.14980863 -0.14214242 -0.14584866 -0.04984045
0.03051723 0.111272015 -0.12480107 0.014951168 -0.024918871 -0.1603261 -0.16358264 0.060993236
-0.13413154 -0.13851146 0.083850235 -0.1219561 -0.014487116 0.13838698 -0.1449671 -0.11124062
-0.04992069 0.23398925 0.08835077 0.122105114 0.04537737 -0.08411139 -0.041762657 -0.15522805
-0.101326205 0.2539269 -0.06810693 0.034798756 0.039744537 -0.047153134 0.08241798 -0.010008737
-0.08797191 0.07672397 0.18199873 0.16348517 -0.012085526 0.2749776 0.035447627 0.27369234
-0.0978395 -0.10425908 0.11032877 -0.09013866 0.08579784 0.14820819 -0.08444911 -0.036438175
-0.09715675 0.13042323 0.19720274 0.21090928 0.044775434 0.14602214 -0.12962031 -0.10607947
-0.0004891838 0.033553306 -0.22151051 -0.08302313 0.15081534 0.19208914 -0.12989582 0.25971407
0.23264234 0.022119358 0.037622936 0.16021438 -0.21441135 -0.07262127 -0.03384147 -0.021942748
0.1352247 0.05828536 -0.13235927 0.064002894 -0.06944374 0.25489953 0.01486576 0.07151999
0.14736305 0.047554318 0.04112512 -0.049667176 -0.07638765 0.1655279 -0.14397426 0.15007222
-0.15167499 -0.009879664 0.15129144 -0.16539176 -0.082452 -0.18252988 -0.0065118354 0.061622873
-0.19309801 -0.1065463 0.15009063 0.13168848 0.18855259 -0.113801755 -0.17186438 0.08874643
-0.11625694 0.079299085 -0.21247023 -0.041259006 0.10843059 0.13305464 -0.035931624 0.073177926
0.18039784 0.31694 0.14492151 0.113134146 -0.17072007 0.094049044 0.17009178 -0.1673871
-0.10367962 -0.14499055 -0.13057446 -0.0716596 -0.10634944 0.24908528 -0.11232343 -0.13750587
0.24378996 0.19544394 -0.0048249345 0.055114485 -0.049580563 0.10126196 0.14597166 -0.20117557
-0.07947467 -0.13014142 0.11530969 0.20128037 0.13067342 0.23841406 0.295556 0.11534489

network.3.bias f4 [16]
00000000: c1c6 653b 2758 7abc 8c33 f73d 654f a3bc
00000010: 4726 bebd 62bd f03d 5bf9 02be 9ff5 7c3e
00000020: 3803 333e 4bff 2a3c 7115 033e 2e91 a03d
00000030: 3cff 043e b1dc e2bb fb17 103a d4bd d3bd
0.0035061094 -0.015279806 0.12070379 -0.01993532 -0.092846446 0.11754872 -0.12790434 0.24703072
0.17481697 0.010436843 0.12801148 0.07840191 0.12987989 -0.006923281 0.00054967374 -0.10338941

network.5.weight f4 [3, 16]
00000000: b582 83be 401c 14be 034a 573d 03c1 eebd
00000010: cd32 76be a62b 25be 2dfa 8e3c 7b91 a03e
00000020: 2ced 873e b84f 0f3e 7639 96bc 0662 58bd
00000030: b2e5 c2bd 010b 9a3e af11 85be 41df 3a3d
00000040: 868d 2abe 8d93 693e 94a2 be3c 6a18 59be
00000050: 6524 963e 7c3c ba3e 953d a53c ddae 8f3e
00000060: 117f 53bd b51a 9fbe ba3b 573e b33c 6abe
00000070: 90c5 85be be26 65be 7e09 3e3d 2def 883d
00000080: dc8d 093e 9cba 0dbe 7d42 97be a2a9 203e
00000090: c61f 463e 3931 fdbd f824 2b3e 794a bfbc
000000a0: db38 66bd 510d fe3d 2692 6bbe 4687 b43e
000000b0: d63e 3f3e 7691 bfbe e0b9 6f3e 5c2a 38be
-0.2568566 -0.14463902 0.052560817 -0.11657908 -0.24042816 -0.16129932 0.017453277 0.31360993
0.26548135 0.13995254 -0.018337946 -0.052827857 -0.09516467 0.3008652 -0.25990054 0.045623068
-0.1665555 0.22810192 0.023270883 -0.2120072 0.29324642 0.3637427 0.020170966 0.28063098
-0.05163485 -0.31075063 0.21018878 -0.22874717 -0.2612729 -0.2237806 0.04639577 0.06686244
0.13433021 -0.13840717 -0.29542914 0.1568971 0.19348058 -0.12362904 0.16713321 -0.023350941
-0.056206565 0.12404884 -0.2300497 0.35259455 0.18676314 -0.37415665 0.2341075 -0.17984909

network.5.bias f4 [3]
00000000: b7fe 8c3e dbc7 0b3e 6192 20bd
0.27538082 0.13650458 -0.039202098
