src/main/resources/models/bitb_phishing_detector.onnx (onnx, 4825 bytes, 6 tensors)

network.0.weight f4 [32, 11]
000000 46 79 47 3e 10 ad 46 3e b3 5c 22 3e 9d a1 5c be
       0.19479856 0.19401956 0.15855674 -0.21546026
000010 88 a7 82 be 56 21 d3 3e 60 40 65 be d7 02 0c 3e
       -0.2551844 0.4123637 -0.22387838 0.13672958
000020 ac 6a f0 bd 16 b3 83 3e 12 b1 bb 3d e6 34 f7 bc
       -0.11739096 0.2572257 0.09164633 -0.030176591
000030 48 68 57 3d ff 72 4e 3d de d9 d7 3b 03 2c c5 bd
       0.052589685 0.050402638 0.006587251 -0.09627535
000040 15 a3 ef 3d eb 51 89 be 3c fa aa 3d 01 62 27 be
       0.11701027 -0.2682031 0.0834851 -0.1634598
000050 2f 0a 17 3e 83 1e 9f be dc 95 eb bc bb 33 ac 3d
       0.14749978 -0.31077966 -0.028757982 0.08408304
000060 b8 dc 3c 3e e4 1c 14 3d 6f 27 fe bd 0a 7c 49 be
       0.18443573 0.036160365 -0.12409865 -0.19676223
000070 d0 67 95 3e 05 e9 0b 3e be 62 e3 bd e1 80 b0 3d
       0.29180765 0.13663109 -0.11102818 0.08618332
000080 6b e9 6b be 44 69 30 be 02 16 99 be b9 08 33 be
       -0.2303826 -0.17227656 -0.29899603 -0.17483796
000090 fa b1 c1 3e b6 1a 07 3e 37 e6 b7 3e bc fb 83 3b
       0.37831098 0.13193783 0.35917827 0.004027812
0000a0 de e2 1b 3e 95 07 c6 3e 50 76 48 be 1c 5b 7b 3e
       0.15223262 0.3867766 -0.19576383 0.24546474
0000b0 32 3b b1 3e d7 c3 ca 3b 2f dd 12 3e 53 51 41 3d
       0.34615475 0.0061878967 0.14342187 0.047196697
0000c0 01 50 b9 3e 73 d6 15 bd 1e 87 9d 3e 50 e0 04 3e
       0.3619385 -0.036581468 0.3076715 0.12976193
0000d0 93 e5 57 be 9f c0 31 bd cf 74 9f 3e 88 14 0f 3e
       -0.2108367 -0.04339659 0.31143805 0.13972676
0000e0 ea 77 e0 3c 06 f8 83 3d a5 5b 2c be 31 c1 62 3e
       0.02740093 0.06443791 -0.16831835 0.22144009
0000f0 e6 98 96 3e 67 a2 55 bd 3c b0 18 be d5 19 14 be
       0.29413527 -0.052156832 -0.14910978 -0.14462979
000100 3f 65 57 be e6 00 4f be 73 3c b3 3c 18 82 2b be
       -0.21034716 -0.20215186 0.02187941 -0.16748846
000110 97 05 94 bd 01 7d 14 3d 3d e3 3b bd 7a 1a 06 be
       -0.07227629 0.036252026 -0.04587101 -0.13096038
000120 64 5c a1 bd 7b a6 b9 3d f2 9a 62 3e 24 e7 1a be
       -0.0787895 0.09064957 0.2212942 -0.15127236
000130 02 ba 8b bd 2e ff be 3e 44 50 bf bc 33 e5 e2 3d
       -0.068225875 0.37304062 -0.023353703 0.110788725
000140 71 78 80 3d 8f 6b ff bd a4 b6 67 bb ca 1c 17 be
       0.062729724 -0.12471687 -0.0035356665 -0.14757076
000150 db 3f 0b be a8 88 c7 3c 98 2f 83 3e 7a d6 58 bd
       -0.13598578 0.024357155 0.2562225 -0.052938916
000160 3d cb 27 be 45 08 4e be 20 eb 45 3e f1 f1 49 3e
       -0.16386123 -0.20120342 0.19327974 0.197212
000170 06 4a 42 3e 8c 0c 66 be 54 9e ad 3e 91 97 9e 3e
       0.1897355 -0.22465724 0.33909857 0.3097501
000180 a6 9d 2c be ba 3b a8 3e e7 17 08 3e df a6 02 3d
       -0.16857013 0.32858068 0.13290368 0.031897422
000190 e0 c4 7c 3e ae ac 13 be 78 37 aa 3e de d4 d8 3d
       0.24684477 -0.14421341 0.33245444 0.10587476
0001a0 68 ca 37 be 59 55 44 3e b5 4c 6f 3e f9 2b 83 3e
       -0.17948306 0.19173183 0.23369105 0.25619486
0001b0 b9 fa 0e 3e 97 98 69 3c f7 cd 89 3e 06 32 93 be
       0.1396283 0.014257572 0.2691495 -0.28749102
0001c0 38 94 fe 3d 81 e1 93 be 9a 64 2f 3e 9c cc 48 3c
       0.12430614 -0.28882983 0.1712822 0.012255814
0001d0 d6 13 ce 3d 13 0e 00 3e 68 89 7e 3e 47 e0 4e be
       0.10062377 0.12505369 0.24857104 -0.20202743
0001e0 ce be 9a be ae b1 95 be 72 a5 89 3e 62 3b 20 be
       -0.30223697 -0.2923712 0.26884037 -0.15647653
0001f0 6f 40 42 be 66 45 08 3e 22 c1 25 3e 92 0d 3e bd
       -0.18969892 0.13307723 0.16186956 -0.04639966
000200 1a 5d af 3e 3b c0 c6 be 6f d5 d2 3e 50 8c e9 bc
       0.34250718 -0.38818535 0.41178462 -0.028509289
000210 ae 7e 90 be 0c 45 4d be 43 dc 26 3e 7d 15 8c be
       -0.2822165 -0.2004587 0.1629496 -0.27360144
000220 d2 b3 2e 3e 56 d7 85 bd 64 ec b7 3d cc a2 80 be
       0.17060784 -0.06535213 0.08980635 -0.25124204
000230 58 b8 99 3e 39 50 99 be 72 ea 3f 3e cd 12 26 be
       0.30023456 -0.29944018 0.18741778 -0.1621811
000240 e8 79 26 be 94 a4 b2 3e 37 90 20 be ed 9a ee bc
       -0.16257441 0.34891188 -0.15680014 -0.029126609
000250 36 c6 d8 3b 60 20 bd 3e d0 a5 ba 3c f4 5c bf bd
       0.0066154255 0.36938763 0.022784144 -0.09343901
000260 5f 84 fc 3d 94 e3 77 be 15 cf 96 3e 4f dd 41 3e
       0.12329935 -0.24207908 0.29454866 0.18932079
000270 af eb a6 3e 8a fc a0 3e 82 9a a8 3e a9 94 3d be
       0.32601687 0.31442672 0.3293038 -0.1851374
000280 98 59 87 3e 3c fa 11 3e 6d 4a 9e 3d 83 a1 29 be
       0.26435542 0.14255613 0.07729039 -0.16565518
000290 8f 90 56 be c9 de 94 3e 62 31 a3 3d 54 98 b4 3e
       -0.20953582 0.29076222 0.079684034 0.35272467
0002a0 47 95 e2 3d 02 92 a3 3e fb b3 02 be 16 f6 53 3e
       0.11063629 0.31947333 -0.1276397 0.20699343
0002b0 b3 c5 2a 3e 22 6b e2 bd d8 02 07 be fe 01 bd 3e
       0.16676979 -0.1105559 -0.13184679 0.36915582
0002c0 bc 92 85 be 52 43 9a be 32 88 7f be 23 44 48 be
       -0.26088512 -0.30129486 -0.24954298 -0.19557242
0002d0 cb 50 f8 bd 6f f8 c8 3d 50 a5 6e be 5a d6 31 3d
       -0.12124785 0.0981301 -0.23305249 0.043417312
0002e0 4d da 5f 3c 8e 11 aa 3d a7 1f 53 3e 84 8e 43 be
       0.013662887 0.083041295 0.20617543 -0.19097334
0002f0 d9 4d 55 3e e7 b5 8d bd 63 90 91 3e c2 fe 41 3e
       0.20830478 -0.06919461 0.2843047 0.18944839
000300 eb 14 7b 3e d6 01 93 3e d4 ea 08 bd fc 8a 95 3e
       0.24519698 0.28712338 -0.033427075 0.292076
000310 69 cb 5c 3e 15 57 d7 3d 29 2b a0 be fd fb dd bd
       0.2156197 0.105146565 -0.3128293 -0.108390786
000320 eb b2 30 be 9c db 4d bb 01 a3 61 3e bc 72 51 bd
       -0.17255752 -0.0031411415 0.22034837 -0.05113481
000330 cc 08 87 3e 36 97 90 3d 0c 11 7d 3e 82 46 47 bb
       0.263739 0.07060091 0.24713534 -0.0030407016
000340 26 84 0e be 1b 3e a9 3d fe 4b 5e 3e e5 05 b6 3e
       -0.13917598 0.08263799 0.21708676 0.35551372
000350 ca e2 67 3e 90 a3 e6 3d 1f ca 2e 3e 24 1f 68 3e
       0.22645107 0.11261666 0.1706929 0.22668129
000360 d9 ec 31 3c 57 ee bf 3e bd f7 40 3e 98 eb 6a 3e
       0.010859692 0.37486526 0.18844505 0.22941434
000370 f7 e0 0e be 84 18 99 3d aa 41 55 be 77 ac 9b 3d
       -0.13953005 0.07475379 -0.2082583 0.076012544
000380 51 4f 85 3d c8 0e 4a 3d ba 03 2f 3e e0 72 a1 bd
       0.06509269 0.049330503 0.17091265 -0.07883239
000390 d8 cc 48 be 87 c3 a8 3e 32 4d 26 3e 72 61 bf bd
       -0.19609392 0.32961676 0.16240385 -0.09344758
0003a0 ea af 46 be 8c 03 93 be 87 dd 48 3d 5f 72 54 be
       -0.19403043 -0.28713644 0.04903939 -0.20746754
0003b0 ce 22 4c 3c e8 90 32 bd 44 e0 8a be 29 b8 0b be
       0.01245947 -0.043595225 -0.27124226 -0.1364447
0003c0 e3 43 c3 bd 72 ce 42 3e b9 cb b4 bd 48 7f b5 3c
       -0.09534433 0.19024065 -0.088279195 0.022155419
0003d0 0e 5c b7 3d a3 4d 74 be ec 9a da 3d 41 7a 86 3d
       0.08953105 -0.23857741 0.1067408 0.06566287
0003e0 15 46 2a 3d d0 cd 64 3d eb 2b 28 bb a0 2a 2a be
       0.04157074 0.05586034 -0.0025660943 -0.16617823
0003f0 46 02 82 be 72 fe f7 bd a7 a2 cd 3e 12 ed 6a be
       -0.2539236 -0.121090785 0.40163156 -0.22941998

network.0.bias f4 [32]
000000 ea b3 14 be a6 b0 11 3e 8f 49 8d bd 13 56 89 be
       -0.14521757 0.14227542 -0.06898796 -0.26823482
000010 c9 b6 a3 bd 5e 52 d3 3d 3d c5 90 be ca 8e 8e be
       -0.07993848 0.10318445 -0.2827548 -0.27843314
000020 97 aa ba bd 3f 37 d4 bd e3 8b eb 3d 20 09 d6 3e
       -0.09114569 -0.103621 0.11501291 0.41803837
000030 5e 52 34 be 6f 45 6e 3e 15 17 4f 3e 10 c8 12 3e
       -0.17609546 0.23268674 0.20223649 0.1433413
000040 4a ca 0d bd 0a 8a 81 3e 4c ef d1 3d 30 3a 1c 3e
       -0.034616746 0.25300628 0.102507204 0.15256572
000050 95 34 57 bd 33 0a b0 3d 68 35 c0 3e 65 83 b8 3e
       -0.05254038 0.08595695 0.37540746 0.36037746
000060 4d f3 3c be 8a d1 6c bd 7d f6 b6 3e 10 b6 e6 3d
       -0.18452187 -0.05781702 0.3573493 0.112651944
000070 d0 ba c4 3e 60 83 9c bd 2f 8e 89 bc 7a 4d 1c 3e
       0.38423777 -0.07642245 -0.016791431 0.1526393

network.3.weight f4 [16, 32]
000000 13 bd 28 be 21 7c 9e bd fa b3 0d 3d fa ac 6f 3d
       -0.16478376 -0.077385195 0.034595467 0.058514573
000010 44 3a e5 bd 66 cd de 3c 1e 74 d3 bd e7 0c 0d be
       -0.11192754 0.027197551 -0.10324882 -0.13774453
000020 21 ca 44 be 56 f9 58 bc 38 e4 12 3e cf 0b 0b be
       -0.19217731 -0.01324304 0.14344871 -0.13578723
000030 a8 51 d9 3c 91 ac 07 bc 0b 11 35 3d 96 ba 04 bd
       0.026528195 -0.008280889 0.044205707 -0.032404505
000040 0e 9c 0a 3d 53 dd 1c be be ec 26 be ea 19 42 3d
       0.03384023 -0.15318803 -0.16301247 0.047387995
000050 97 d0 f3 bd 9b a2 c3 bc 0b d0 1f bd 0e 97 7c 3c
       -0.1190502 -0.023881247 -0.039016765 0.015416874
000060 b6 58 e8 bd b4 e4 fa 3d ae 7b 33 be 35 23 11 be
       -0.11345045 0.12250653 -0.17527649 -0.14173587
000070 93 ef fb bd 2d 08 1c be 4b f7 a0 bd b0 09 4f 3d
       -0.123015545 -0.15237494 -0.078596674 0.050546348
000080 39 55 1a be 41 26 60 be 34 ab 75 3d a9 43 84 3e
       -0.15071572 -0.21889593 0.059977725 0.2583287
000090 2c c8 d9 3c 6f 4c d2 bd a2 23 a4 3d 6a 5a a4 3d
       0.026584707 -0.10268485 0.08014609 0.080250576
0000a0 65 e6 89 3e 6d ba cb 3d 2e 65 28 3d 9e 5a 6f bc
       0.2693359 0.09947667 0.041112117 -0.014609007
0000b0 6c 9c 18 bd 56 e8 40 3e 59 69 8b 3d c6 6f 61 3e
       -0.03725855 0.18838629 0.06807203 0.22015294
0000c0 0c c7 07 3c fb 1a 4c 3e eb e4 3e 3e c0 58 e4 3b
       0.008287203 0.19932167 0.18642013 0.0069685876
0000d0 2f 8d 01 bd 06 0e 7d bd ad 6b b5 bd 24 8a 0a bd
       -0.031628784 -0.061780952 -0.08858428 -0.033823147
0000e0 f1 32 05 3e cc 36 30 3c 48 76 57 bd b7 9e 02 3e
       0.13007714 0.010755252 -0.052603036 0.12755857
0000f0 2a 4d 66 be 9a 4a e0 bc 15 9e 54 3e d5 d3 2e bd
       -0.22490373 -0.027379323 0.20763429 -0.042682488
000100 f3 dd 9e bc e2 88 74 3d 2c 25 6c 3d 47 b1 4c be
       -0.019392943 0.059700854 0.057652637 -0.19989501
000110 c3 17 0b be 99 08 87 bd 63 0f f3 3d 05 9a 0e 3e
       -0.13583283 -0.06593437 0.11868169 0.13925941
000120 23 bd 0d 3e 16 83 06 3d 51 79 5a 3d e8 7d 87 3e
       0.13841681 0.032839857 0.053338353 0.26463246
000130 ab 7e 02 be 6b 3f 7c 3e 5c 1e a3 bd ed ff 51 3d
       -0.12743632 0.24633567 -0.07964775 0.05126946
000140 4e f3 87 3d b5 e6 de 3d e7 8a 6c 3d 73 56 73 bd
       0.066382036 0.108838476 0.057749655 -0.059408616
000150 3f c6 da 3b b3 2e 33 3e ba 9b 4b 3e 48 23 a0 3d
       0.006676465 0.17498283 0.19883624 0.07819229
000160 bc e7 87 3e 07 a4 44 3e 0a 24 88 bd 58 bc 98 3e
       0.26543987 0.19203196 -0.06647499 0.29831195
000170 b4 fa 41 3e d2 29 97 3e 63 fe 21 3d 7c 1e a4 3d
       0.18943292 0.29524094 0.039549243 0.08013627
000180 b7 49 89 3e 84 b1 0a be a3 ee e4 3d 1a 4d 17 be
       0.26814052 -0.1354428 0.11178329 -0.14775506
000190 be fc f1 3d 2c 2d 0c 3e 13 83 14 bd c5 dd 82 3e
       0.11815785 0.13689107 -0.036257815 0.25559822
0001a0 66 55 6a 3e 49 da fb 3d 8f 1b bd 3d 4c 4f 20 3e
       0.2288414 0.12297494 0.09233772 0.1565525
0001b0 ca 76 5c bd 59 95 8a 3e d0 ce b7 bd 3b 51 43 3e
       -0.053824224 0.27067068 -0.08974993 0.19073956
0001c0 f1 e6 0f be c0 2c 31 ba df 9a de 3c 62 70 a8 3d
       -0.14052941 -0.00067586824 0.027173458 0.0822456
0001d0 ec 21 86 3e 6f 8e 82 bd af fe ca 3c b5 da d4 bd
       0.26197755 -0.06374823 0.024779646 -0.103932776
0001e0 49 9c 49 3e f1 1f df 3c e4 52 f7 bb 0a 4e 8e 3d
       0.19688524 0.02723691 -0.007547723 0.069484785
0001f0 24 5a 35 3e 8f a4 30 3e 9e ec 72 3d de 5c 35 bc
       0.17710167 0.17250274 0.059307687 -0.011069505
000200 36 fe d8 bd f7 2a 5b be dd b4 e0 bc 69 93 96 3d
       -0.10595362 -0.21403109 -0.027429992 0.07352335
000210 d3 56 09 3e 86 a8 47 3e ab 53 08 be d9 47 25 bc
       0.13412027 0.1949788 -0.13313167 -0.010087931
000220 10 98 e3 3d dd d1 6f 3e 6b 35 8a bc 2c 37 2f be
       0.11112988 0.234199 -0.016871175 -0.1711089
000230 c6 d2 25 3e 97 8f 26 3e 11 06 73 3e fe 1d 30 3e
       0.16193685 0.16265713 0.23732783 0.17198941
000240 61 ca 43 3d 66 fd 87 3e ab a0 09 be 31 f3 0e 3e
       0.047800425 0.26560515 -0.13440196 0.13959958
000250 83 e6 c2 bd b4 b3 12 3d 95 c1 82 be 0e 13 94 bd
       -0.09516623 0.03581591 -0.25538316 -0.07230197
000260 0c bd c2 bc 35 70 95 ba 03 6f f4 3d 55 d7 05 be
       -0.023771785 -0.0011401238 0.11935236 -0.13070424
000270 0b f4 53 be da 05 83 bd de 03 14 3d 9c c9 84 3e
       -0.20698564 -0.063976005 0.0361365 0.25935066
000280 a6 77 5f be 32 03 87 be 18 04 2c be fe 71 57 3e
       -0.21822986 -0.26369625 -0.16798437 0.21039578
000290 93 a5 61 3e d4 12 09 be 52 b9 d8 bd 6e 8f a1 bd
       0.22035818 -0.13386089 -0.10582222 -0.07888685
0002a0 5c 3b 86 bd 72 1a 3b bd 40 91 08 ba 96 5b 54 be
       -0.06554291 -0.045679517 -0.0005209632 -0.20738062
0002b0 7b d8 21 3c 2e d6 9a 3c ee 61 14 3e 1c 50 01 3e
       0.009878273 0.018900957 0.14490482 0.12628216
0002c0 88 d2 95 bd e5 76 5f 3d 58 c6 53 bc 2b 1c 68 3e
       -0.07315546 0.054556746 -0.012925707 0.22666995
0002d0 6e 85 47 be d1 b5 8f bd 87 d6 de bd a0 83 c8 3d
       -0.19484493 -0.070171006 -0.108807616 0.097907305
0002e0 6c e7 9f be 32 d9 7b be 22 f1 64 3e 52 00 6b bd
       -0.31231248 -0.24594572 0.2235761 -0.057373352
0002f0 31 01 3d be 6f cc 85 be d7 40 6c 3e ec 67 ec bc
       -0.18457486 -0.26132533 0.2307161 -0.028858148
000300 ed 05 cb bd 37 06 6e be 30 6f 7b 3e 2e e5 08 be
       -0.0991324 -0.23244558 0.24554133 -0.13368675
000310 07 f9 b8 3b a1 27 04 3e 15 ef 47 bd ab a3 55 3e
       0.0056449207 0.12905742 -0.04881199 0.20863216
000320 81 f3 bf bd 81 58 e8 3c 07 4b 7d 3e 28 68 c6 bd
       -0.093726166 0.028362514 0.24735652 -0.09687835
000330 d1 f9 40 3d e6 53 b3 bc fe 15 8b bd e4 c6 48 bc
       0.047113243 -0.021890592 -0.06791304 -0.0122544505
000340 e2 0b b6 bc 03 7c 02 3e 19 cc 8e 3e 83 b8 c0 3d
       -0.022222463 0.12742619 0.2789009 0.09410193
000350 c8 de 31 3d a1 0e b7 bd 3f 72 78 3d e4 ea ba 3d
       0.04342535 -0.08938337 0.06065583 0.09126833
000360 cf 07 44 3e 3d 90 79 3e fa 7b 47 3e 6c 54 3c 3d
       0.19143604 0.24371429 0.19480887 0.04597895
000370 96 d0 c6 3d 4a b1 a1 3d fe 9d e6 bc bb e0 f2 3d
       0.09707753 0.07895143 -0.028151508 0.1185927
000380 c1 79 69 3e 18 74 32 3e e4 c3 b5 bd da 30 49 3c
       0.22800352 0.17427099 -0.08875254 0.0122797135
000390 6d 28 ce bd 58 9b 21 3e 7b 96 ff 3d 99 88 92 be
       -0.10066304 0.15781915 0.12479874 -0.2861984
0003a0 db e7 66 be c4 b2 5a bd f4 19 e9 3c a8 1d a1 3d
       -0.22549383 -0.05339314 0.028454758 0.078669846
0003b0 51 7d 67 3d 2c bb 9a bd 21 2d 88 bd d5 14 4c bd
       0.056515995 -0.075552315 -0.06649233 -0.049824554
0003c0 9f fb ad bd c9 28 20 3e a3 bd 77 be 0a 23 19 bd
       -0.084952585 0.15640558 -0.24193434 -0.03738693
0003d0 42 f3 10 3e 54 41 94 3d 0a b7 92 3e fa 28 b9 3d
       0.14155295 0.07239023 0.28655273 0.09041019
0003e0 d0 6d a6 bd 96 7c d5 bc 06 a3 62 3d 08 46 0a 3a
       -0.08126414 -0.026060384 0.055331253 0.00052747177
0003f0 5f 9c 21 3e 5b fc 0d be 28 22 b8 bd ad 6c 5c be
       0.15782307 -0.13865797 -0.0899089 -0.21525832

network.3.bias f4 [16]
000000 78 eb 96 bd 27 31 39 3d 4d 5b 8c 3e da 10 57 bd
       -0.07369131 0.04521289 0.27413407 -0.052506305
000010 67 6c 8c 3d f4 8d e3 bd 26 dc 0c bd 51 e4 2a 3e
       0.068566136 -0.1111106 -0.034389637 0.16688658
000020 e9 3e 27 bd 32 7f 2d 3e 91 77 ab 3d 57 c8 c5 3d
       -0.04083148 0.16943052 0.08372415 0.096573524
000030 a1 73 02 3e 25 4d 8d bd 88 53 0f be d0 54 c1 3d
       0.12739421 -0.0689948 -0.13996708 0.09440005

network.5.weight f4 [3, 16]
000000 3b df 3a 3c 62 84 7e be 91 07 5d 3c 24 69 2c be
       0.011405761 -0.24855188 0.0134905735 -0.16836983
000010 7e 63 1d be 70 98 1d be 8c 9c 7f be 56 a6 9a 3e
       -0.15369985 -0.15390182 -0.24962062 0.3020503
000020 26 2d 57 3e 76 70 50 3e 07 41 b7 be c4 80 de 3d
       0.21013317 0.203554 -0.357918 0.10864404
000030 6e 27 a7 3d 98 47 72 3d 9e 03 38 3e 32 b6 f9 3d
       0.081618175 0.05915031 0.1797013 0.12192954
000040 4b 5d 8f bc 74 67 90 3e f4 27 cd bc 95 4e 7a 3d
       -0.01750054 0.28203928 -0.025043465 0.061110098
000050 51 b1 32 3e 9b ae a8 bd 2f c1 9a 3d da da b4 be
       0.17450453 -0.08236428 0.07556378 -0.3532322
000060 4e 91 f2 bc 13 0b c1 be b5 22 0b 3e 48 78 30 be
       -0.029610302 -0.3770376 0.13587458 -0.17233384
000070 da 36 aa 3e f7 98 fb bd 14 2d 36 3e ab 0e 0f be
       0.33244973 -0.12285035 0.17790633 -0.13970439
000080 ef c4 e8 bc 0d 57 92 3e 84 e3 a2 be 14 a5 7e be
       -0.028414218 0.2858204 -0.31814206 -0.2486766
000090 a3 72 ac 3e ad 1b 7b 3e 19 7c 81 be 2d d8 d1 bd
       0.3368121 0.24522276 -0.25289991 -0.102463104
0000a0 27 52 9e bd 6d f2 8c bd 64 ec 93 3e 47 87 bb be
       -0.07730513 -0.068821765 0.2889129 -0.36626646
0000b0 60 e8 be be e1 b1 b2 3e cc 94 36 bb a6 cc ba be
       -0.37286663 0.34901336 -0.0027859686 -0.3648426

network.5.bias f4 [3]
000000 9e 3e fb 3d 5d 72 1e be 11 ac b1 bd
       0.12267803 -0.15473314 -0.08675397
